layer {
  name: "data"
  type: "AnnotatedData"
  top: "data"
  top: "label"
  include {
    phase: TRAIN
  }
  transform_param {
    scale: 0.00784313771874
    mirror: false
    mean_value: 127.5
    mean_value: 127.5
    mean_value: 127.5
    resize_param {
      prob: 0.10000000149
      resize_mode: WARP
      height: 416
      width: 416
      interp_mode: LINEAR
      interp_mode: AREA
      interp_mode: NEAREST
      interp_mode: CUBIC
      interp_mode: LANCZOS4
    }
    resize_param {
      prob: 0.10000000149
      resize_mode: WARP
      height: 448
      width: 448
      interp_mode: LINEAR
      interp_mode: AREA
      interp_mode: NEAREST
      interp_mode: CUBIC
      interp_mode: LANCZOS4
    }
    resize_param {
      prob: 0.10000000149
      resize_mode: WARP
      height: 480
      width: 480
      interp_mode: LINEAR
      interp_mode: AREA
      interp_mode: NEAREST
      interp_mode: CUBIC
      interp_mode: LANCZOS4
    }
    resize_param {
      prob: 0.10000000149
      resize_mode: WARP
      height: 512
      width: 512
      interp_mode: LINEAR
      interp_mode: AREA
      interp_mode: NEAREST
      interp_mode: CUBIC
      interp_mode: LANCZOS4
    }
    resize_param {
      prob: 0.10000000149
      resize_mode: WARP
      height: 544
      width: 544
      interp_mode: LINEAR
      interp_mode: AREA
      interp_mode: NEAREST
      interp_mode: CUBIC
      interp_mode: LANCZOS4
    }
    resize_param {
      prob: 0.10000000149
      resize_mode: WARP
      height: 384
      width: 384
      interp_mode: LINEAR
      interp_mode: AREA
      interp_mode: NEAREST
      interp_mode: CUBIC
      interp_mode: LANCZOS4
    }
    resize_param {
      prob: 0.10000000149
      resize_mode: WARP
      height: 352
      width: 352
      interp_mode: LINEAR
      interp_mode: AREA
      interp_mode: NEAREST
      interp_mode: CUBIC
      interp_mode: LANCZOS4
    }
    resize_param {
      prob: 0.10000000149
      resize_mode: WARP
      height: 320
      width: 320
      interp_mode: LINEAR
      interp_mode: AREA
      interp_mode: NEAREST
      interp_mode: CUBIC
      interp_mode: LANCZOS4
    }
    resize_param {
      prob: 0.10000000149
      resize_mode: WARP
      height: 288
      width: 288
      interp_mode: LINEAR
      interp_mode: AREA
      interp_mode: NEAREST
      interp_mode: CUBIC
      interp_mode: LANCZOS4
    }
    resize_param {
      prob: 0.10000000149
      resize_mode: WARP
      height: 256
      width: 256
      interp_mode: LINEAR
      interp_mode: AREA
      interp_mode: NEAREST
      interp_mode: CUBIC
      interp_mode: LANCZOS4
    }
    emit_constraint {
      emit_type: CENTER
    }
    distort_param {
      brightness_prob: 0.5
      brightness_delta: 32.0
      contrast_prob: 0.5
      contrast_lower: 0.5
      contrast_upper: 1.5
      hue_prob: 0.5
      hue_delta: 18.0
      saturation_prob: 0.5
      saturation_lower: 0.5
      saturation_upper: 1.5
      random_order_prob: 0.0
    }
    expand_param {
      prob: 0.5
      max_expand_ratio: 4.0
    }
  }
  data_param {
    source: "examples/VOC0712/VOC0712_trainval_lmdb"
    batch_size: 4
    backend: LMDB
  }
  annotated_data_param {
    label_map_file: "data/VOC0712/labelmap_voc.prototxt"
    yolo_data_type: 1
    yolo_data_jitter: 0.300000011921
  }
}
layer {
  name: "data"
  type: "AnnotatedData"
  top: "data"
  top: "label"
  include {
    phase: TEST
  }
  transform_param {
    scale: 0.00784313771874
    mirror: false
    mean_value: 127.5
    mean_value: 127.5
    mean_value: 127.5
    resize_param {
      prob: 1.0
      resize_mode: WARP
      height: 416
      width: 416
      interp_mode: AREA
    }
  }
  data_param {
    source: "examples/VOC0712/VOC0712_test_lmdb"
    batch_size: 1
    backend: LMDB
  }
  annotated_data_param {
    batch_sampler {
    }
    label_map_file: "data/VOC0712/labelmap_voc.prototxt"
  }
}
layer {
  name: "conv1"
  type: "Convolution"
  bottom: "data"
  top: "conv1"
  convolution_param {
    num_output: 32
    bias_term: false
    pad: 1
    kernel_size: 3
    stride: 2
    weight_filler {
      type: "msra"
    }
    bias_filler {
      type: "constant"
    }
  }
}
layer {
  name: "conv1/bn"
  type: "BatchNorm"
  bottom: "conv1"
  top: "conv1"
  param {
    lr_mult: 0.0
    decay_mult: 0.0
  }
  param {
    lr_mult: 0.0
    decay_mult: 0.0
  }
  param {
    lr_mult: 0.0
    decay_mult: 0.0
  }
  batch_norm_param {
    moving_average_fraction: 0.999000012875
    eps: 0.0010000000475
  }
}
layer {
  name: "conv1/scale"
  type: "Scale"
  bottom: "conv1"
  top: "conv1"
  param {
    lr_mult: 1.0
    decay_mult: 0.0
  }
  param {
    lr_mult: 2.0
    decay_mult: 0.0
  }
  scale_param {
    filler {
      value: 1.0
    }
    bias_term: true
    bias_filler {
      value: 0.0
    }
  }
}
layer {
  name: "conv1/relu"
  type: "ReLU6"
  bottom: "conv1"
  top: "conv1"
}
layer {
  name: "conv2_1/dw"
  type: "ConvolutionDepthwise"
  bottom: "conv1"
  top: "conv2_1/dw"
  convolution_param {
    num_output: 16
    bias_term: false
    pad: 1
    kernel_size: 3
    group: 16
    stride: 1
    weight_filler {
      type: "msra"
    }
    bias_filler {
      type: "constant"
    }
    engine: CAFFE
  }
}
layer {
  name: "conv2_1/dw/bn"
  type: "BatchNorm"
  bottom: "conv2_1/dw"
  top: "conv2_1/dw"
  param {
    lr_mult: 0.0
    decay_mult: 0.0
  }
  param {
    lr_mult: 0.0
    decay_mult: 0.0
  }
  param {
    lr_mult: 0.0
    decay_mult: 0.0
  }
  batch_norm_param {
    moving_average_fraction: 0.999000012875
    eps: 0.0010000000475
  }
}
layer {
  name: "conv2_1/dw/scale"
  type: "Scale"
  bottom: "conv2_1/dw"
  top: "conv2_1/dw"
  param {
    lr_mult: 1.0
    decay_mult: 0.0
  }
  param {
    lr_mult: 2.0
    decay_mult: 0.0
  }
  scale_param {
    filler {
      value: 1.0
    }
    bias_term: true
    bias_filler {
      value: 0.0
    }
  }
}
layer {
  name: "conv2_1/dw/relu"
  type: "ReLU6"
  bottom: "conv2_1/dw"
  top: "conv2_1/dw"
}
layer {
  name: "conv2_1/sep"
  type: "Convolution"
  bottom: "conv2_1/dw"
  top: "conv2_1/sep"
  convolution_param {
    num_output: 16
    bias_term: false
    pad: 0
    kernel_size: 1
    stride: 1
    weight_filler {
      type: "msra"
    }
    bias_filler {
      type: "constant"
    }
  }
}
layer {
  name: "conv2_1/sep/bn"
  type: "BatchNorm"
  bottom: "conv2_1/sep"
  top: "conv2_1/sep"
  param {
    lr_mult: 0.0
    decay_mult: 0.0
  }
  param {
    lr_mult: 0.0
    decay_mult: 0.0
  }
  param {
    lr_mult: 0.0
    decay_mult: 0.0
  }
  batch_norm_param {
    moving_average_fraction: 0.999000012875
    eps: 0.0010000000475
  }
}
layer {
  name: "conv2_1/sep/scale"
  type: "Scale"
  bottom: "conv2_1/sep"
  top: "conv2_1/sep"
  param {
    lr_mult: 1.0
    decay_mult: 0.0
  }
  param {
    lr_mult: 2.0
    decay_mult: 0.0
  }
  scale_param {
    filler {
      value: 1.0
    }
    bias_term: true
    bias_filler {
      value: 0.0
    }
  }
}
layer {
  name: "conv2_1/sep/relu"
  type: "ReLU6"
  bottom: "conv2_1/sep"
  top: "conv2_1/sep"
}
layer {
  name: "conv3_1/sep1"
  type: "Convolution"
  bottom: "conv2_1/sep"
  top: "conv3_1/sep1"
  convolution_param {
    num_output: 72
    bias_term: false
    pad: 0
    kernel_size: 1
    stride: 1
    weight_filler {
      type: "msra"
    }
    bias_filler {
      type: "constant"
    }
  }
}
layer {
  name: "conv3_1/sep1/bn"
  type: "BatchNorm"
  bottom: "conv3_1/sep1"
  top: "conv3_1/sep1"
  param {
    lr_mult: 0.0
    decay_mult: 0.0
  }
  param {
    lr_mult: 0.0
    decay_mult: 0.0
  }
  param {
    lr_mult: 0.0
    decay_mult: 0.0
  }
  batch_norm_param {
    moving_average_fraction: 0.999000012875
    eps: 0.0010000000475
  }
}
layer {
  name: "conv3_1/sep1/scale"
  type: "Scale"
  bottom: "conv3_1/sep1"
  top: "conv3_1/sep1"
  param {
    lr_mult: 1.0
    decay_mult: 0.0
  }
  param {
    lr_mult: 2.0
    decay_mult: 0.0
  }
  scale_param {
    filler {
      value: 1.0
    }
    bias_term: true
    bias_filler {
      value: 0.0
    }
  }
}
layer {
  name: "conv3_1/sep1/relu"
  type: "ReLU6"
  bottom: "conv3_1/sep1"
  top: "conv3_1/sep1"
}
layer {
  name: "conv3_1/dw"
  type: "ConvolutionDepthwise"
  bottom: "conv3_1/sep1"
  top: "conv3_1/dw"
  convolution_param {
    num_output: 72
    bias_term: false
    pad: 1
    kernel_size: 3
    group: 72
    stride: 2
    weight_filler {
      type: "msra"
    }
    bias_filler {
      type: "constant"
    }
    engine: CAFFE
  }
}
layer {
  name: "conv3_1/dw/bn"
  type: "BatchNorm"
  bottom: "conv3_1/dw"
  top: "conv3_1/dw"
  param {
    lr_mult: 0.0
    decay_mult: 0.0
  }
  param {
    lr_mult: 0.0
    decay_mult: 0.0
  }
  param {
    lr_mult: 0.0
    decay_mult: 0.0
  }
  batch_norm_param {
    moving_average_fraction: 0.999000012875
    eps: 0.0010000000475
  }
}
layer {
  name: "conv3_1/dw/scale"
  type: "Scale"
  bottom: "conv3_1/dw"
  top: "conv3_1/dw"
  param {
    lr_mult: 1.0
    decay_mult: 0.0
  }
  param {
    lr_mult: 2.0
    decay_mult: 0.0
  }
  scale_param {
    filler {
      value: 1.0
    }
    bias_term: true
    bias_filler {
      value: 0.0
    }
  }
}
layer {
  name: "conv3_1/dw/relu"
  type: "ReLU6"
  bottom: "conv3_1/dw"
  top: "conv3_1/dw"
}
layer {
  name: "conv3_1/sep2"
  type: "Convolution"
  bottom: "conv3_1/dw"
  top: "conv3_1/sep2"
  convolution_param {
    num_output: 24
    bias_term: false
    pad: 0
    kernel_size: 1
    stride: 1
    weight_filler {
      type: "msra"
    }
    bias_filler {
      type: "constant"
    }
  }
}
layer {
  name: "conv3_1/sep2/bn"
  type: "BatchNorm"
  bottom: "conv3_1/sep2"
  top: "conv3_1/sep2"
  param {
    lr_mult: 0.0
    decay_mult: 0.0
  }
  param {
    lr_mult: 0.0
    decay_mult: 0.0
  }
  param {
    lr_mult: 0.0
    decay_mult: 0.0
  }
  batch_norm_param {
    moving_average_fraction: 0.999000012875
    eps: 0.0010000000475
  }
}
layer {
  name: "conv3_1/sep2/scale"
  type: "Scale"
  bottom: "conv3_1/sep2"
  top: "conv3_1/sep2"
  param {
    lr_mult: 1.0
    decay_mult: 0.0
  }
  param {
    lr_mult: 2.0
    decay_mult: 0.0
  }
  scale_param {
    filler {
      value: 1.0
    }
    bias_term: true
    bias_filler {
      value: 0.0
    }
  }
}
layer {
  name: "conv3_2/sep1"
  type: "Convolution"
  bottom: "conv3_1/sep2"
  top: "conv3_2/sep1"
  convolution_param {
    num_output: 72
    bias_term: false
    pad: 0
    kernel_size: 1
    stride: 1
    weight_filler {
      type: "msra"
    }
    bias_filler {
      type: "constant"
    }
  }
}
layer {
  name: "conv3_2/sep1/bn"
  type: "BatchNorm"
  bottom: "conv3_2/sep1"
  top: "conv3_2/sep1"
  param {
    lr_mult: 0.0
    decay_mult: 0.0
  }
  param {
    lr_mult: 0.0
    decay_mult: 0.0
  }
  param {
    lr_mult: 0.0
    decay_mult: 0.0
  }
  batch_norm_param {
    moving_average_fraction: 0.999000012875
    eps: 0.0010000000475
  }
}
layer {
  name: "conv3_2/sep1/scale"
  type: "Scale"
  bottom: "conv3_2/sep1"
  top: "conv3_2/sep1"
  param {
    lr_mult: 1.0
    decay_mult: 0.0
  }
  param {
    lr_mult: 2.0
    decay_mult: 0.0
  }
  scale_param {
    filler {
      value: 1.0
    }
    bias_term: true
    bias_filler {
      value: 0.0
    }
  }
}
layer {
  name: "conv3_2/sep1/relu"
  type: "ReLU6"
  bottom: "conv3_2/sep1"
  top: "conv3_2/sep1"
}
layer {
  name: "conv3_2/dw"
  type: "ConvolutionDepthwise"
  bottom: "conv3_2/sep1"
  top: "conv3_2/dw"
  convolution_param {
    num_output: 72
    bias_term: false
    pad: 1
    kernel_size: 3
    group: 72
    stride: 1
    weight_filler {
      type: "msra"
    }
    bias_filler {
      type: "constant"
    }
    engine: CAFFE
  }
}
layer {
  name: "conv3_2/dw/bn"
  type: "BatchNorm"
  bottom: "conv3_2/dw"
  top: "conv3_2/dw"
  param {
    lr_mult: 0.0
    decay_mult: 0.0
  }
  param {
    lr_mult: 0.0
    decay_mult: 0.0
  }
  param {
    lr_mult: 0.0
    decay_mult: 0.0
  }
  batch_norm_param {
    moving_average_fraction: 0.999000012875
    eps: 0.0010000000475
  }
}
layer {
  name: "conv3_2/dw/scale"
  type: "Scale"
  bottom: "conv3_2/dw"
  top: "conv3_2/dw"
  param {
    lr_mult: 1.0
    decay_mult: 0.0
  }
  param {
    lr_mult: 2.0
    decay_mult: 0.0
  }
  scale_param {
    filler {
      value: 1.0
    }
    bias_term: true
    bias_filler {
      value: 0.0
    }
  }
}
layer {
  name: "conv3_2/dw/relu"
  type: "ReLU6"
  bottom: "conv3_2/dw"
  top: "conv3_2/dw"
}
layer {
  name: "conv3_2/sep2"
  type: "Convolution"
  bottom: "conv3_2/dw"
  top: "conv3_2/sep2"
  convolution_param {
    num_output: 24
    bias_term: false
    pad: 0
    kernel_size: 1
    stride: 1
    weight_filler {
      type: "msra"
    }
    bias_filler {
      type: "constant"
    }
  }
}
layer {
  name: "conv3_2/sep2/bn"
  type: "BatchNorm"
  bottom: "conv3_2/sep2"
  top: "conv3_2/sep2"
  param {
    lr_mult: 0.0
    decay_mult: 0.0
  }
  param {
    lr_mult: 0.0
    decay_mult: 0.0
  }
  param {
    lr_mult: 0.0
    decay_mult: 0.0
  }
  batch_norm_param {
    moving_average_fraction: 0.999000012875
    eps: 0.0010000000475
  }
}
layer {
  name: "conv3_2/sep2/scale"
  type: "Scale"
  bottom: "conv3_2/sep2"
  top: "conv3_2/sep2"
  param {
    lr_mult: 1.0
    decay_mult: 0.0
  }
  param {
    lr_mult: 2.0
    decay_mult: 0.0
  }
  scale_param {
    filler {
      value: 1.0
    }
    bias_term: true
    bias_filler {
      value: 0.0
    }
  }
}
layer {
  name: "conv3_2/sep2/eltwise"
  type: "Eltwise"
  bottom: "conv3_1/sep2"
  bottom: "conv3_2/sep2"
  top: "conv3_2/sep2/eltwise"
}
layer {
  name: "conv3_3/sep1"
  type: "Convolution"
  bottom: "conv3_2/sep2/eltwise"
  top: "conv3_3/sep1"
  convolution_param {
    num_output: 72
    bias_term: false
    pad: 0
    kernel_size: 1
    stride: 1
    weight_filler {
      type: "msra"
    }
    bias_filler {
      type: "constant"
    }
  }
}
layer {
  name: "conv3_3/sep1/bn"
  type: "BatchNorm"
  bottom: "conv3_3/sep1"
  top: "conv3_3/sep1"
  param {
    lr_mult: 0.0
    decay_mult: 0.0
  }
  param {
    lr_mult: 0.0
    decay_mult: 0.0
  }
  param {
    lr_mult: 0.0
    decay_mult: 0.0
  }
  batch_norm_param {
    moving_average_fraction: 0.999000012875
    eps: 0.0010000000475
  }
}
layer {
  name: "conv3_3/sep1/scale"
  type: "Scale"
  bottom: "conv3_3/sep1"
  top: "conv3_3/sep1"
  param {
    lr_mult: 1.0
    decay_mult: 0.0
  }
  param {
    lr_mult: 2.0
    decay_mult: 0.0
  }
  scale_param {
    filler {
      value: 1.0
    }
    bias_term: true
    bias_filler {
      value: 0.0
    }
  }
}
layer {
  name: "conv3_3/sep1/relu"
  type: "ReLU6"
  bottom: "conv3_3/sep1"
  top: "conv3_3/sep1"
}
layer {
  name: "conv3_3/dw"
  type: "ConvolutionDepthwise"
  bottom: "conv3_3/sep1"
  top: "conv3_3/dw"
  convolution_param {
    num_output: 72
    bias_term: false
    pad: 1
    kernel_size: 3
    group: 72
    stride: 1
    weight_filler {
      type: "msra"
    }
    bias_filler {
      type: "constant"
    }
    engine: CAFFE
  }
}
layer {
  name: "conv3_3/dw/bn"
  type: "BatchNorm"
  bottom: "conv3_3/dw"
  top: "conv3_3/dw"
  param {
    lr_mult: 0.0
    decay_mult: 0.0
  }
  param {
    lr_mult: 0.0
    decay_mult: 0.0
  }
  param {
    lr_mult: 0.0
    decay_mult: 0.0
  }
  batch_norm_param {
    moving_average_fraction: 0.999000012875
    eps: 0.0010000000475
  }
}
layer {
  name: "conv3_3/dw/scale"
  type: "Scale"
  bottom: "conv3_3/dw"
  top: "conv3_3/dw"
  param {
    lr_mult: 1.0
    decay_mult: 0.0
  }
  param {
    lr_mult: 2.0
    decay_mult: 0.0
  }
  scale_param {
    filler {
      value: 1.0
    }
    bias_term: true
    bias_filler {
      value: 0.0
    }
  }
}
layer {
  name: "conv3_3/dw/relu"
  type: "ReLU6"
  bottom: "conv3_3/dw"
  top: "conv3_3/dw"
}
layer {
  name: "conv3_3/sep2"
  type: "Convolution"
  bottom: "conv3_3/dw"
  top: "conv3_3/sep2"
  convolution_param {
    num_output: 24
    bias_term: false
    pad: 0
    kernel_size: 1
    stride: 1
    weight_filler {
      type: "msra"
    }
    bias_filler {
      type: "constant"
    }
  }
}
layer {
  name: "conv3_3/sep2/bn"
  type: "BatchNorm"
  bottom: "conv3_3/sep2"
  top: "conv3_3/sep2"
  param {
    lr_mult: 0.0
    decay_mult: 0.0
  }
  param {
    lr_mult: 0.0
    decay_mult: 0.0
  }
  param {
    lr_mult: 0.0
    decay_mult: 0.0
  }
  batch_norm_param {
    moving_average_fraction: 0.999000012875
    eps: 0.0010000000475
  }
}
layer {
  name: "conv3_3/sep2/scale"
  type: "Scale"
  bottom: "conv3_3/sep2"
  top: "conv3_3/sep2"
  param {
    lr_mult: 1.0
    decay_mult: 0.0
  }
  param {
    lr_mult: 2.0
    decay_mult: 0.0
  }
  scale_param {
    filler {
      value: 1.0
    }
    bias_term: true
    bias_filler {
      value: 0.0
    }
  }
}
layer {
  name: "conv3_3/sep2/eltwise"
  type: "Eltwise"
  bottom: "conv3_2/sep2/eltwise"
  bottom: "conv3_3/sep2"
  top: "conv3_3/sep2/eltwise"
}
layer {
  name: "conv4_1/sep1"
  type: "Convolution"
  bottom: "conv3_3/sep2/eltwise"
  top: "conv4_1/sep1"
  convolution_param {
    num_output: 120
    bias_term: false
    pad: 0
    kernel_size: 1
    stride: 1
    weight_filler {
      type: "msra"
    }
    bias_filler {
      type: "constant"
    }
  }
}
layer {
  name: "conv4_1/sep1/bn"
  type: "BatchNorm"
  bottom: "conv4_1/sep1"
  top: "conv4_1/sep1"
  param {
    lr_mult: 0.0
    decay_mult: 0.0
  }
  param {
    lr_mult: 0.0
    decay_mult: 0.0
  }
  param {
    lr_mult: 0.0
    decay_mult: 0.0
  }
  batch_norm_param {
    moving_average_fraction: 0.999000012875
    eps: 0.0010000000475
  }
}
layer {
  name: "conv4_1/sep1/scale"
  type: "Scale"
  bottom: "conv4_1/sep1"
  top: "conv4_1/sep1"
  param {
    lr_mult: 1.0
    decay_mult: 0.0
  }
  param {
    lr_mult: 2.0
    decay_mult: 0.0
  }
  scale_param {
    filler {
      value: 1.0
    }
    bias_term: true
    bias_filler {
      value: 0.0
    }
  }
}
layer {
  name: "conv4_1/sep1/relu"
  type: "ReLU6"
  bottom: "conv4_1/sep1"
  top: "conv4_1/sep1"
}
layer {
  name: "conv4_1/dw"
  type: "ConvolutionDepthwise"
  bottom: "conv4_1/sep1"
  top: "conv4_1/dw"
  convolution_param {
    num_output: 120
    bias_term: false
    pad: 2
    kernel_size: 5
    group: 120
    stride: 2
    weight_filler {
      type: "msra"
    }
    bias_filler {
      type: "constant"
    }
    engine: CAFFE
  }
}
layer {
  name: "conv4_1/dw/bn"
  type: "BatchNorm"
  bottom: "conv4_1/dw"
  top: "conv4_1/dw"
  param {
    lr_mult: 0.0
    decay_mult: 0.0
  }
  param {
    lr_mult: 0.0
    decay_mult: 0.0
  }
  param {
    lr_mult: 0.0
    decay_mult: 0.0
  }
  batch_norm_param {
    moving_average_fraction: 0.999000012875
    eps: 0.0010000000475
  }
}
layer {
  name: "conv4_1/dw/scale"
  type: "Scale"
  bottom: "conv4_1/dw"
  top: "conv4_1/dw"
  param {
    lr_mult: 1.0
    decay_mult: 0.0
  }
  param {
    lr_mult: 2.0
    decay_mult: 0.0
  }
  scale_param {
    filler {
      value: 1.0
    }
    bias_term: true
    bias_filler {
      value: 0.0
    }
  }
}
layer {
  name: "conv4_1/dw/relu"
  type: "ReLU6"
  bottom: "conv4_1/dw"
  top: "conv4_1/dw"
}
layer {
  name: "conv4_1/sep2"
  type: "Convolution"
  bottom: "conv4_1/dw"
  top: "conv4_1/sep2"
  convolution_param {
    num_output: 40
    bias_term: false
    pad: 0
    kernel_size: 1
    stride: 1
    weight_filler {
      type: "msra"
    }
    bias_filler {
      type: "constant"
    }
  }
}
layer {
  name: "conv4_1/sep2/bn"
  type: "BatchNorm"
  bottom: "conv4_1/sep2"
  top: "conv4_1/sep2"
  param {
    lr_mult: 0.0
    decay_mult: 0.0
  }
  param {
    lr_mult: 0.0
    decay_mult: 0.0
  }
  param {
    lr_mult: 0.0
    decay_mult: 0.0
  }
  batch_norm_param {
    moving_average_fraction: 0.999000012875
    eps: 0.0010000000475
  }
}
layer {
  name: "conv4_1/sep2/scale"
  type: "Scale"
  bottom: "conv4_1/sep2"
  top: "conv4_1/sep2"
  param {
    lr_mult: 1.0
    decay_mult: 0.0
  }
  param {
    lr_mult: 2.0
    decay_mult: 0.0
  }
  scale_param {
    filler {
      value: 1.0
    }
    bias_term: true
    bias_filler {
      value: 0.0
    }
  }
}
layer {
  name: "conv4_2/sep1"
  type: "Convolution"
  bottom: "conv4_1/sep2"
  top: "conv4_2/sep1"
  convolution_param {
    num_output: 120
    bias_term: false
    pad: 0
    kernel_size: 1
    stride: 1
    weight_filler {
      type: "msra"
    }
    bias_filler {
      type: "constant"
    }
  }
}
layer {
  name: "conv4_2/sep1/bn"
  type: "BatchNorm"
  bottom: "conv4_2/sep1"
  top: "conv4_2/sep1"
  param {
    lr_mult: 0.0
    decay_mult: 0.0
  }
  param {
    lr_mult: 0.0
    decay_mult: 0.0
  }
  param {
    lr_mult: 0.0
    decay_mult: 0.0
  }
  batch_norm_param {
    moving_average_fraction: 0.999000012875
    eps: 0.0010000000475
  }
}
layer {
  name: "conv4_2/sep1/scale"
  type: "Scale"
  bottom: "conv4_2/sep1"
  top: "conv4_2/sep1"
  param {
    lr_mult: 1.0
    decay_mult: 0.0
  }
  param {
    lr_mult: 2.0
    decay_mult: 0.0
  }
  scale_param {
    filler {
      value: 1.0
    }
    bias_term: true
    bias_filler {
      value: 0.0
    }
  }
}
layer {
  name: "conv4_2/sep1/relu"
  type: "ReLU6"
  bottom: "conv4_2/sep1"
  top: "conv4_2/sep1"
}
layer {
  name: "conv4_2/dw"
  type: "ConvolutionDepthwise"
  bottom: "conv4_2/sep1"
  top: "conv4_2/dw"
  convolution_param {
    num_output: 120
    bias_term: false
    pad: 2
    kernel_size: 5
    group: 120
    stride: 1
    weight_filler {
      type: "msra"
    }
    bias_filler {
      type: "constant"
    }
    engine: CAFFE
  }
}
layer {
  name: "conv4_2/dw/bn"
  type: "BatchNorm"
  bottom: "conv4_2/dw"
  top: "conv4_2/dw"
  param {
    lr_mult: 0.0
    decay_mult: 0.0
  }
  param {
    lr_mult: 0.0
    decay_mult: 0.0
  }
  param {
    lr_mult: 0.0
    decay_mult: 0.0
  }
  batch_norm_param {
    moving_average_fraction: 0.999000012875
    eps: 0.0010000000475
  }
}
layer {
  name: "conv4_2/dw/scale"
  type: "Scale"
  bottom: "conv4_2/dw"
  top: "conv4_2/dw"
  param {
    lr_mult: 1.0
    decay_mult: 0.0
  }
  param {
    lr_mult: 2.0
    decay_mult: 0.0
  }
  scale_param {
    filler {
      value: 1.0
    }
    bias_term: true
    bias_filler {
      value: 0.0
    }
  }
}
layer {
  name: "conv4_2/dw/relu"
  type: "ReLU6"
  bottom: "conv4_2/dw"
  top: "conv4_2/dw"
}
layer {
  name: "conv4_2/sep2"
  type: "Convolution"
  bottom: "conv4_2/dw"
  top: "conv4_2/sep2"
  convolution_param {
    num_output: 40
    bias_term: false
    pad: 0
    kernel_size: 1
    stride: 1
    weight_filler {
      type: "msra"
    }
    bias_filler {
      type: "constant"
    }
  }
}
layer {
  name: "conv4_2/sep2/bn"
  type: "BatchNorm"
  bottom: "conv4_2/sep2"
  top: "conv4_2/sep2"
  param {
    lr_mult: 0.0
    decay_mult: 0.0
  }
  param {
    lr_mult: 0.0
    decay_mult: 0.0
  }
  param {
    lr_mult: 0.0
    decay_mult: 0.0
  }
  batch_norm_param {
    moving_average_fraction: 0.999000012875
    eps: 0.0010000000475
  }
}
layer {
  name: "conv4_2/sep2/scale"
  type: "Scale"
  bottom: "conv4_2/sep2"
  top: "conv4_2/sep2"
  param {
    lr_mult: 1.0
    decay_mult: 0.0
  }
  param {
    lr_mult: 2.0
    decay_mult: 0.0
  }
  scale_param {
    filler {
      value: 1.0
    }
    bias_term: true
    bias_filler {
      value: 0.0
    }
  }
}
layer {
  name: "conv4_2/sep2/eltwise"
  type: "Eltwise"
  bottom: "conv4_1/sep2"
  bottom: "conv4_2/sep2"
  top: "conv4_2/sep2/eltwise"
}
layer {
  name: "conv4_3/sep1"
  type: "Convolution"
  bottom: "conv4_2/sep2/eltwise"
  top: "conv4_3/sep1"
  convolution_param {
    num_output: 120
    bias_term: false
    pad: 0
    kernel_size: 1
    stride: 1
    weight_filler {
      type: "msra"
    }
    bias_filler {
      type: "constant"
    }
  }
}
layer {
  name: "conv4_3/sep1/bn"
  type: "BatchNorm"
  bottom: "conv4_3/sep1"
  top: "conv4_3/sep1"
  param {
    lr_mult: 0.0
    decay_mult: 0.0
  }
  param {
    lr_mult: 0.0
    decay_mult: 0.0
  }
  param {
    lr_mult: 0.0
    decay_mult: 0.0
  }
  batch_norm_param {
    moving_average_fraction: 0.999000012875
    eps: 0.0010000000475
  }
}
layer {
  name: "conv4_3/sep1/scale"
  type: "Scale"
  bottom: "conv4_3/sep1"
  top: "conv4_3/sep1"
  param {
    lr_mult: 1.0
    decay_mult: 0.0
  }
  param {
    lr_mult: 2.0
    decay_mult: 0.0
  }
  scale_param {
    filler {
      value: 1.0
    }
    bias_term: true
    bias_filler {
      value: 0.0
    }
  }
}
layer {
  name: "conv4_3/sep1/relu"
  type: "ReLU6"
  bottom: "conv4_3/sep1"
  top: "conv4_3/sep1"
}
layer {
  name: "conv4_3/dw"
  type: "ConvolutionDepthwise"
  bottom: "conv4_3/sep1"
  top: "conv4_3/dw"
  convolution_param {
    num_output: 120
    bias_term: false
    pad: 2
    kernel_size: 5
    group: 120
    stride: 1
    weight_filler {
      type: "msra"
    }
    bias_filler {
      type: "constant"
    }
    engine: CAFFE
  }
}
layer {
  name: "conv4_3/dw/bn"
  type: "BatchNorm"
  bottom: "conv4_3/dw"
  top: "conv4_3/dw"
  param {
    lr_mult: 0.0
    decay_mult: 0.0
  }
  param {
    lr_mult: 0.0
    decay_mult: 0.0
  }
  param {
    lr_mult: 0.0
    decay_mult: 0.0
  }
  batch_norm_param {
    moving_average_fraction: 0.999000012875
    eps: 0.0010000000475
  }
}
layer {
  name: "conv4_3/dw/scale"
  type: "Scale"
  bottom: "conv4_3/dw"
  top: "conv4_3/dw"
  param {
    lr_mult: 1.0
    decay_mult: 0.0
  }
  param {
    lr_mult: 2.0
    decay_mult: 0.0
  }
  scale_param {
    filler {
      value: 1.0
    }
    bias_term: true
    bias_filler {
      value: 0.0
    }
  }
}
layer {
  name: "conv4_3/dw/relu"
  type: "ReLU6"
  bottom: "conv4_3/dw"
  top: "conv4_3/dw"
}
layer {
  name: "conv4_3/sep2"
  type: "Convolution"
  bottom: "conv4_3/dw"
  top: "conv4_3/sep2"
  convolution_param {
    num_output: 40
    bias_term: false
    pad: 0
    kernel_size: 1
    stride: 1
    weight_filler {
      type: "msra"
    }
    bias_filler {
      type: "constant"
    }
  }
}
layer {
  name: "conv4_3/sep2/bn"
  type: "BatchNorm"
  bottom: "conv4_3/sep2"
  top: "conv4_3/sep2"
  param {
    lr_mult: 0.0
    decay_mult: 0.0
  }
  param {
    lr_mult: 0.0
    decay_mult: 0.0
  }
  param {
    lr_mult: 0.0
    decay_mult: 0.0
  }
  batch_norm_param {
    moving_average_fraction: 0.999000012875
    eps: 0.0010000000475
  }
}
layer {
  name: "conv4_3/sep2/scale"
  type: "Scale"
  bottom: "conv4_3/sep2"
  top: "conv4_3/sep2"
  param {
    lr_mult: 1.0
    decay_mult: 0.0
  }
  param {
    lr_mult: 2.0
    decay_mult: 0.0
  }
  scale_param {
    filler {
      value: 1.0
    }
    bias_term: true
    bias_filler {
      value: 0.0
    }
  }
}
layer {
  name: "conv4_3/sep2/eltwise"
  type: "Eltwise"
  bottom: "conv4_2/sep2/eltwise"
  bottom: "conv4_3/sep2"
  top: "conv4_3/sep2/eltwise"
}
layer {
  name: "conv5_1/sep1"
  type: "Convolution"
  bottom: "conv4_3/sep2/eltwise"
  top: "conv5_1/sep1"
  convolution_param {
    num_output: 480
    bias_term: false
    pad: 0
    kernel_size: 1
    stride: 1
    weight_filler {
      type: "msra"
    }
    bias_filler {
      type: "constant"
    }
  }
}
layer {
  name: "conv5_1/sep1/bn"
  type: "BatchNorm"
  bottom: "conv5_1/sep1"
  top: "conv5_1/sep1"
  param {
    lr_mult: 0.0
    decay_mult: 0.0
  }
  param {
    lr_mult: 0.0
    decay_mult: 0.0
  }
  param {
    lr_mult: 0.0
    decay_mult: 0.0
  }
  batch_norm_param {
    moving_average_fraction: 0.999000012875
    eps: 0.0010000000475
  }
}
layer {
  name: "conv5_1/sep1/scale"
  type: "Scale"
  bottom: "conv5_1/sep1"
  top: "conv5_1/sep1"
  param {
    lr_mult: 1.0
    decay_mult: 0.0
  }
  param {
    lr_mult: 2.0
    decay_mult: 0.0
  }
  scale_param {
    filler {
      value: 1.0
    }
    bias_term: true
    bias_filler {
      value: 0.0
    }
  }
}
layer {
  name: "conv5_1/sep1/relu"
  type: "ReLU6"
  bottom: "conv5_1/sep1"
  top: "conv5_1/sep1"
}
layer {
  name: "conv5_1/dw"
  type: "ConvolutionDepthwise"
  bottom: "conv5_1/sep1"
  top: "conv5_1/dw"
  convolution_param {
    num_output: 480
    bias_term: false
    pad: 2
    kernel_size: 5
    group: 480
    stride: 2
    weight_filler {
      type: "msra"
    }
    bias_filler {
      type: "constant"
    }
    engine: CAFFE
  }
}
layer {
  name: "conv5_1/dw/bn"
  type: "BatchNorm"
  bottom: "conv5_1/dw"
  top: "conv5_1/dw"
  param {
    lr_mult: 0.0
    decay_mult: 0.0
  }
  param {
    lr_mult: 0.0
    decay_mult: 0.0
  }
  param {
    lr_mult: 0.0
    decay_mult: 0.0
  }
  batch_norm_param {
    moving_average_fraction: 0.999000012875
    eps: 0.0010000000475
  }
}
layer {
  name: "conv5_1/dw/scale"
  type: "Scale"
  bottom: "conv5_1/dw"
  top: "conv5_1/dw"
  param {
    lr_mult: 1.0
    decay_mult: 0.0
  }
  param {
    lr_mult: 2.0
    decay_mult: 0.0
  }
  scale_param {
    filler {
      value: 1.0
    }
    bias_term: true
    bias_filler {
      value: 0.0
    }
  }
}
layer {
  name: "conv5_1/dw/relu"
  type: "ReLU6"
  bottom: "conv5_1/dw"
  top: "conv5_1/dw"
}
layer {
  name: "conv5_1/sep2"
  type: "Convolution"
  bottom: "conv5_1/dw"
  top: "conv5_1/sep2"
  convolution_param {
    num_output: 80
    bias_term: false
    pad: 0
    kernel_size: 1
    stride: 1
    weight_filler {
      type: "msra"
    }
    bias_filler {
      type: "constant"
    }
  }
}
layer {
  name: "conv5_1/sep2/bn"
  type: "BatchNorm"
  bottom: "conv5_1/sep2"
  top: "conv5_1/sep2"
  param {
    lr_mult: 0.0
    decay_mult: 0.0
  }
  param {
    lr_mult: 0.0
    decay_mult: 0.0
  }
  param {
    lr_mult: 0.0
    decay_mult: 0.0
  }
  batch_norm_param {
    moving_average_fraction: 0.999000012875
    eps: 0.0010000000475
  }
}
layer {
  name: "conv5_1/sep2/scale"
  type: "Scale"
  bottom: "conv5_1/sep2"
  top: "conv5_1/sep2"
  param {
    lr_mult: 1.0
    decay_mult: 0.0
  }
  param {
    lr_mult: 2.0
    decay_mult: 0.0
  }
  scale_param {
    filler {
      value: 1.0
    }
    bias_term: true
    bias_filler {
      value: 0.0
    }
  }
}
layer {
  name: "conv5_2/sep1"
  type: "Convolution"
  bottom: "conv5_1/sep2"
  top: "conv5_2/sep1"
  convolution_param {
    num_output: 480
    bias_term: false
    pad: 0
    kernel_size: 1
    stride: 1
    weight_filler {
      type: "msra"
    }
    bias_filler {
      type: "constant"
    }
  }
}
layer {
  name: "conv5_2/sep1/bn"
  type: "BatchNorm"
  bottom: "conv5_2/sep1"
  top: "conv5_2/sep1"
  param {
    lr_mult: 0.0
    decay_mult: 0.0
  }
  param {
    lr_mult: 0.0
    decay_mult: 0.0
  }
  param {
    lr_mult: 0.0
    decay_mult: 0.0
  }
  batch_norm_param {
    moving_average_fraction: 0.999000012875
    eps: 0.0010000000475
  }
}
layer {
  name: "conv5_2/sep1/scale"
  type: "Scale"
  bottom: "conv5_2/sep1"
  top: "conv5_2/sep1"
  param {
    lr_mult: 1.0
    decay_mult: 0.0
  }
  param {
    lr_mult: 2.0
    decay_mult: 0.0
  }
  scale_param {
    filler {
      value: 1.0
    }
    bias_term: true
    bias_filler {
      value: 0.0
    }
  }
}
layer {
  name: "conv5_2/sep1/relu"
  type: "ReLU6"
  bottom: "conv5_2/sep1"
  top: "conv5_2/sep1"
}
layer {
  name: "conv5_2/dw"
  type: "ConvolutionDepthwise"
  bottom: "conv5_2/sep1"
  top: "conv5_2/dw"
  convolution_param {
    num_output: 480
    bias_term: false
    pad: 2
    kernel_size: 5
    group: 480
    stride: 1
    weight_filler {
      type: "msra"
    }
    bias_filler {
      type: "constant"
    }
    engine: CAFFE
  }
}
layer {
  name: "conv5_2/dw/bn"
  type: "BatchNorm"
  bottom: "conv5_2/dw"
  top: "conv5_2/dw"
  param {
    lr_mult: 0.0
    decay_mult: 0.0
  }
  param {
    lr_mult: 0.0
    decay_mult: 0.0
  }
  param {
    lr_mult: 0.0
    decay_mult: 0.0
  }
  batch_norm_param {
    moving_average_fraction: 0.999000012875
    eps: 0.0010000000475
  }
}
layer {
  name: "conv5_2/dw/scale"
  type: "Scale"
  bottom: "conv5_2/dw"
  top: "conv5_2/dw"
  param {
    lr_mult: 1.0
    decay_mult: 0.0
  }
  param {
    lr_mult: 2.0
    decay_mult: 0.0
  }
  scale_param {
    filler {
      value: 1.0
    }
    bias_term: true
    bias_filler {
      value: 0.0
    }
  }
}
layer {
  name: "conv5_2/dw/relu"
  type: "ReLU6"
  bottom: "conv5_2/dw"
  top: "conv5_2/dw"
}
layer {
  name: "conv5_2/sep2"
  type: "Convolution"
  bottom: "conv5_2/dw"
  top: "conv5_2/sep2"
  convolution_param {
    num_output: 80
    bias_term: false
    pad: 0
    kernel_size: 1
    stride: 1
    weight_filler {
      type: "msra"
    }
    bias_filler {
      type: "constant"
    }
  }
}
layer {
  name: "conv5_2/sep2/bn"
  type: "BatchNorm"
  bottom: "conv5_2/sep2"
  top: "conv5_2/sep2"
  param {
    lr_mult: 0.0
    decay_mult: 0.0
  }
  param {
    lr_mult: 0.0
    decay_mult: 0.0
  }
  param {
    lr_mult: 0.0
    decay_mult: 0.0
  }
  batch_norm_param {
    moving_average_fraction: 0.999000012875
    eps: 0.0010000000475
  }
}
layer {
  name: "conv5_2/sep2/scale"
  type: "Scale"
  bottom: "conv5_2/sep2"
  top: "conv5_2/sep2"
  param {
    lr_mult: 1.0
    decay_mult: 0.0
  }
  param {
    lr_mult: 2.0
    decay_mult: 0.0
  }
  scale_param {
    filler {
      value: 1.0
    }
    bias_term: true
    bias_filler {
      value: 0.0
    }
  }
}
layer {
  name: "conv5_2/sep2/eltwise"
  type: "Eltwise"
  bottom: "conv5_1/sep2"
  bottom: "conv5_2/sep2"
  top: "conv5_2/sep2/eltwise"
}
layer {
  name: "conv5_3/sep1"
  type: "Convolution"
  bottom: "conv5_2/sep2/eltwise"
  top: "conv5_3/sep1"
  convolution_param {
    num_output: 480
    bias_term: false
    pad: 0
    kernel_size: 1
    stride: 1
    weight_filler {
      type: "msra"
    }
    bias_filler {
      type: "constant"
    }
  }
}
layer {
  name: "conv5_3/sep1/bn"
  type: "BatchNorm"
  bottom: "conv5_3/sep1"
  top: "conv5_3/sep1"
  param {
    lr_mult: 0.0
    decay_mult: 0.0
  }
  param {
    lr_mult: 0.0
    decay_mult: 0.0
  }
  param {
    lr_mult: 0.0
    decay_mult: 0.0
  }
  batch_norm_param {
    moving_average_fraction: 0.999000012875
    eps: 0.0010000000475
  }
}
layer {
  name: "conv5_3/sep1/scale"
  type: "Scale"
  bottom: "conv5_3/sep1"
  top: "conv5_3/sep1"
  param {
    lr_mult: 1.0
    decay_mult: 0.0
  }
  param {
    lr_mult: 2.0
    decay_mult: 0.0
  }
  scale_param {
    filler {
      value: 1.0
    }
    bias_term: true
    bias_filler {
      value: 0.0
    }
  }
}
layer {
  name: "conv5_3/sep1/relu"
  type: "ReLU6"
  bottom: "conv5_3/sep1"
  top: "conv5_3/sep1"
}
layer {
  name: "conv5_3/dw"
  type: "ConvolutionDepthwise"
  bottom: "conv5_3/sep1"
  top: "conv5_3/dw"
  convolution_param {
    num_output: 480
    bias_term: false
    pad: 2
    kernel_size: 5
    group: 480
    stride: 1
    weight_filler {
      type: "msra"
    }
    bias_filler {
      type: "constant"
    }
    engine: CAFFE
  }
}
layer {
  name: "conv5_3/dw/bn"
  type: "BatchNorm"
  bottom: "conv5_3/dw"
  top: "conv5_3/dw"
  param {
    lr_mult: 0.0
    decay_mult: 0.0
  }
  param {
    lr_mult: 0.0
    decay_mult: 0.0
  }
  param {
    lr_mult: 0.0
    decay_mult: 0.0
  }
  batch_norm_param {
    moving_average_fraction: 0.999000012875
    eps: 0.0010000000475
  }
}
layer {
  name: "conv5_3/dw/scale"
  type: "Scale"
  bottom: "conv5_3/dw"
  top: "conv5_3/dw"
  param {
    lr_mult: 1.0
    decay_mult: 0.0
  }
  param {
    lr_mult: 2.0
    decay_mult: 0.0
  }
  scale_param {
    filler {
      value: 1.0
    }
    bias_term: true
    bias_filler {
      value: 0.0
    }
  }
}
layer {
  name: "conv5_3/dw/relu"
  type: "ReLU6"
  bottom: "conv5_3/dw"
  top: "conv5_3/dw"
}
layer {
  name: "conv5_3/sep2"
  type: "Convolution"
  bottom: "conv5_3/dw"
  top: "conv5_3/sep2"
  convolution_param {
    num_output: 80
    bias_term: false
    pad: 0
    kernel_size: 1
    stride: 1
    weight_filler {
      type: "msra"
    }
    bias_filler {
      type: "constant"
    }
  }
}
layer {
  name: "conv5_3/sep2/bn"
  type: "BatchNorm"
  bottom: "conv5_3/sep2"
  top: "conv5_3/sep2"
  param {
    lr_mult: 0.0
    decay_mult: 0.0
  }
  param {
    lr_mult: 0.0
    decay_mult: 0.0
  }
  param {
    lr_mult: 0.0
    decay_mult: 0.0
  }
  batch_norm_param {
    moving_average_fraction: 0.999000012875
    eps: 0.0010000000475
  }
}
layer {
  name: "conv5_3/sep2/scale"
  type: "Scale"
  bottom: "conv5_3/sep2"
  top: "conv5_3/sep2"
  param {
    lr_mult: 1.0
    decay_mult: 0.0
  }
  param {
    lr_mult: 2.0
    decay_mult: 0.0
  }
  scale_param {
    filler {
      value: 1.0
    }
    bias_term: true
    bias_filler {
      value: 0.0
    }
  }
}
layer {
  name: "conv5_3/sep2/eltwise"
  type: "Eltwise"
  bottom: "conv5_2/sep2/eltwise"
  bottom: "conv5_3/sep2"
  top: "conv5_3/sep2/eltwise"
}
layer {
  name: "conv6_1/sep1"
  type: "Convolution"
  bottom: "conv5_3/sep2/eltwise"
  top: "conv6_1/sep1"
  convolution_param {
    num_output: 576
    bias_term: false
    pad: 0
    kernel_size: 1
    stride: 1
    weight_filler {
      type: "msra"
    }
    bias_filler {
      type: "constant"
    }
  }
}
layer {
  name: "conv6_1/sep1/bn"
  type: "BatchNorm"
  bottom: "conv6_1/sep1"
  top: "conv6_1/sep1"
  param {
    lr_mult: 0.0
    decay_mult: 0.0
  }
  param {
    lr_mult: 0.0
    decay_mult: 0.0
  }
  param {
    lr_mult: 0.0
    decay_mult: 0.0
  }
  batch_norm_param {
    moving_average_fraction: 0.999000012875
    eps: 0.0010000000475
  }
}
layer {
  name: "conv6_1/sep1/scale"
  type: "Scale"
  bottom: "conv6_1/sep1"
  top: "conv6_1/sep1"
  param {
    lr_mult: 1.0
    decay_mult: 0.0
  }
  param {
    lr_mult: 2.0
    decay_mult: 0.0
  }
  scale_param {
    filler {
      value: 1.0
    }
    bias_term: true
    bias_filler {
      value: 0.0
    }
  }
}
layer {
  name: "conv6_1/sep1/relu"
  type: "ReLU6"
  bottom: "conv6_1/sep1"
  top: "conv6_1/sep1"
}
layer {
  name: "conv6_1/dw"
  type: "ConvolutionDepthwise"
  bottom: "conv6_1/sep1"
  top: "conv6_1/dw"
  convolution_param {
    num_output: 576
    bias_term: false
    pad: 1
    kernel_size: 3
    group: 576
    stride: 1
    weight_filler {
      type: "msra"
    }
    bias_filler {
      type: "constant"
    }
    engine: CAFFE
  }
}
layer {
  name: "conv6_1/dw/bn"
  type: "BatchNorm"
  bottom: "conv6_1/dw"
  top: "conv6_1/dw"
  param {
    lr_mult: 0.0
    decay_mult: 0.0
  }
  param {
    lr_mult: 0.0
    decay_mult: 0.0
  }
  param {
    lr_mult: 0.0
    decay_mult: 0.0
  }
  batch_norm_param {
    moving_average_fraction: 0.999000012875
    eps: 0.0010000000475
  }
}
layer {
  name: "conv6_1/dw/scale"
  type: "Scale"
  bottom: "conv6_1/dw"
  top: "conv6_1/dw"
  param {
    lr_mult: 1.0
    decay_mult: 0.0
  }
  param {
    lr_mult: 2.0
    decay_mult: 0.0
  }
  scale_param {
    filler {
      value: 1.0
    }
    bias_term: true
    bias_filler {
      value: 0.0
    }
  }
}
layer {
  name: "conv6_1/dw/relu"
  type: "ReLU6"
  bottom: "conv6_1/dw"
  top: "conv6_1/dw"
}
layer {
  name: "conv6_1/sep2"
  type: "Convolution"
  bottom: "conv6_1/dw"
  top: "conv6_1/sep2"
  convolution_param {
    num_output: 96
    bias_term: false
    pad: 0
    kernel_size: 1
    stride: 1
    weight_filler {
      type: "msra"
    }
    bias_filler {
      type: "constant"
    }
  }
}
layer {
  name: "conv6_1/sep2/bn"
  type: "BatchNorm"
  bottom: "conv6_1/sep2"
  top: "conv6_1/sep2"
  param {
    lr_mult: 0.0
    decay_mult: 0.0
  }
  param {
    lr_mult: 0.0
    decay_mult: 0.0
  }
  param {
    lr_mult: 0.0
    decay_mult: 0.0
  }
  batch_norm_param {
    moving_average_fraction: 0.999000012875
    eps: 0.0010000000475
  }
}
layer {
  name: "conv6_1/sep2/scale"
  type: "Scale"
  bottom: "conv6_1/sep2"
  top: "conv6_1/sep2"
  param {
    lr_mult: 1.0
    decay_mult: 0.0
  }
  param {
    lr_mult: 2.0
    decay_mult: 0.0
  }
  scale_param {
    filler {
      value: 1.0
    }
    bias_term: true
    bias_filler {
      value: 0.0
    }
  }
}
layer {
  name: "conv6_2/sep1"
  type: "Convolution"
  bottom: "conv6_1/sep2"
  top: "conv6_2/sep1"
  convolution_param {
    num_output: 576
    bias_term: false
    pad: 0
    kernel_size: 1
    stride: 1
    weight_filler {
      type: "msra"
    }
    bias_filler {
      type: "constant"
    }
  }
}
layer {
  name: "conv6_2/sep1/bn"
  type: "BatchNorm"
  bottom: "conv6_2/sep1"
  top: "conv6_2/sep1"
  param {
    lr_mult: 0.0
    decay_mult: 0.0
  }
  param {
    lr_mult: 0.0
    decay_mult: 0.0
  }
  param {
    lr_mult: 0.0
    decay_mult: 0.0
  }
  batch_norm_param {
    moving_average_fraction: 0.999000012875
    eps: 0.0010000000475
  }
}
layer {
  name: "conv6_2/sep1/scale"
  type: "Scale"
  bottom: "conv6_2/sep1"
  top: "conv6_2/sep1"
  param {
    lr_mult: 1.0
    decay_mult: 0.0
  }
  param {
    lr_mult: 2.0
    decay_mult: 0.0
  }
  scale_param {
    filler {
      value: 1.0
    }
    bias_term: true
    bias_filler {
      value: 0.0
    }
  }
}
layer {
  name: "conv6_2/sep1/relu"
  type: "ReLU6"
  bottom: "conv6_2/sep1"
  top: "conv6_2/sep1"
}
layer {
  name: "conv6_2/dw"
  type: "ConvolutionDepthwise"
  bottom: "conv6_2/sep1"
  top: "conv6_2/dw"
  convolution_param {
    num_output: 576
    bias_term: false
    pad: 1
    kernel_size: 3
    group: 576
    stride: 1
    weight_filler {
      type: "msra"
    }
    bias_filler {
      type: "constant"
    }
    engine: CAFFE
  }
}
layer {
  name: "conv6_2/dw/bn"
  type: "BatchNorm"
  bottom: "conv6_2/dw"
  top: "conv6_2/dw"
  param {
    lr_mult: 0.0
    decay_mult: 0.0
  }
  param {
    lr_mult: 0.0
    decay_mult: 0.0
  }
  param {
    lr_mult: 0.0
    decay_mult: 0.0
  }
  batch_norm_param {
    moving_average_fraction: 0.999000012875
    eps: 0.0010000000475
  }
}
layer {
  name: "conv6_2/dw/scale"
  type: "Scale"
  bottom: "conv6_2/dw"
  top: "conv6_2/dw"
  param {
    lr_mult: 1.0
    decay_mult: 0.0
  }
  param {
    lr_mult: 2.0
    decay_mult: 0.0
  }
  scale_param {
    filler {
      value: 1.0
    }
    bias_term: true
    bias_filler {
      value: 0.0
    }
  }
}
layer {
  name: "conv6_2/dw/relu"
  type: "ReLU6"
  bottom: "conv6_2/dw"
  top: "conv6_2/dw"
}
layer {
  name: "conv6_2/sep2"
  type: "Convolution"
  bottom: "conv6_2/dw"
  top: "conv6_2/sep2"
  convolution_param {
    num_output: 96
    bias_term: false
    pad: 0
    kernel_size: 1
    stride: 1
    weight_filler {
      type: "msra"
    }
    bias_filler {
      type: "constant"
    }
  }
}
layer {
  name: "conv6_2/sep2/bn"
  type: "BatchNorm"
  bottom: "conv6_2/sep2"
  top: "conv6_2/sep2"
  param {
    lr_mult: 0.0
    decay_mult: 0.0
  }
  param {
    lr_mult: 0.0
    decay_mult: 0.0
  }
  param {
    lr_mult: 0.0
    decay_mult: 0.0
  }
  batch_norm_param {
    moving_average_fraction: 0.999000012875
    eps: 0.0010000000475
  }
}
layer {
  name: "conv6_2/sep2/scale"
  type: "Scale"
  bottom: "conv6_2/sep2"
  top: "conv6_2/sep2"
  param {
    lr_mult: 1.0
    decay_mult: 0.0
  }
  param {
    lr_mult: 2.0
    decay_mult: 0.0
  }
  scale_param {
    filler {
      value: 1.0
    }
    bias_term: true
    bias_filler {
      value: 0.0
    }
  }
}
layer {
  name: "conv6_2/sep2/eltwise"
  type: "Eltwise"
  bottom: "conv6_1/sep2"
  bottom: "conv6_2/sep2"
  top: "conv6_2/sep2/eltwise"
}
layer {
  name: "conv_last_1/sep1"
  type: "Convolution"
  bottom: "conv6_2/sep2/eltwise"
  top: "conv_last_1/sep1"
  convolution_param {
    num_output: 450
    bias_term: false
    pad: 0
    kernel_size: 1
    stride: 1
    weight_filler {
      type: "msra"
    }
    bias_filler {
      type: "constant"
    }
  }
}
layer {
  name: "conv_last_1/sep1/bn"
  type: "BatchNorm"
  bottom: "conv_last_1/sep1"
  top: "conv_last_1/sep1"
  param {
    lr_mult: 0.0
    decay_mult: 0.0
  }
  param {
    lr_mult: 0.0
    decay_mult: 0.0
  }
  param {
    lr_mult: 0.0
    decay_mult: 0.0
  }
  batch_norm_param {
    moving_average_fraction: 0.999000012875
    eps: 0.0010000000475
  }
}
layer {
  name: "conv_last_1/sep1/scale"
  type: "Scale"
  bottom: "conv_last_1/sep1"
  top: "conv_last_1/sep1"
  param {
    lr_mult: 1.0
    decay_mult: 0.0
  }
  param {
    lr_mult: 2.0
    decay_mult: 0.0
  }
  scale_param {
    filler {
      value: 1.0
    }
    bias_term: true
    bias_filler {
      value: 0.0
    }
  }
}
layer {
  name: "conv_last_1/sep1/relu"
  type: "ReLU6"
  bottom: "conv_last_1/sep1"
  top: "conv_last_1/sep1"
}
layer {
  name: "conv_last_1/dw"
  type: "ConvolutionDepthwise"
  bottom: "conv_last_1/sep1"
  top: "conv_last_1/dw"
  convolution_param {
    num_output: 450
    bias_term: false
    pad: 1
    kernel_size: 3
    group: 450
    stride: 1
    weight_filler {
      type: "msra"
    }
    bias_filler {
      type: "constant"
    }
    engine: CAFFE
  }
}
layer {
  name: "conv_last_1/dw/bn"
  type: "BatchNorm"
  bottom: "conv_last_1/dw"
  top: "conv_last_1/dw"
  param {
    lr_mult: 0.0
    decay_mult: 0.0
  }
  param {
    lr_mult: 0.0
    decay_mult: 0.0
  }
  param {
    lr_mult: 0.0
    decay_mult: 0.0
  }
  batch_norm_param {
    moving_average_fraction: 0.999000012875
    eps: 0.0010000000475
  }
}
layer {
  name: "conv_last_1/dw/scale"
  type: "Scale"
  bottom: "conv_last_1/dw"
  top: "conv_last_1/dw"
  param {
    lr_mult: 1.0
    decay_mult: 0.0
  }
  param {
    lr_mult: 2.0
    decay_mult: 0.0
  }
  scale_param {
    filler {
      value: 1.0
    }
    bias_term: true
    bias_filler {
      value: 0.0
    }
  }
}
layer {
  name: "conv_last_1/dw/relu"
  type: "ReLU6"
  bottom: "conv_last_1/dw"
  top: "conv_last_1/dw"
}
layer {
  name: "conv_last_1/sep2"
  type: "Convolution"
  bottom: "conv_last_1/dw"
  top: "conv_last_1/sep2"
  convolution_param {
    num_output: 75
    bias_term: false
    pad: 0
    kernel_size: 1
    stride: 1
    weight_filler {
      type: "msra"
    }
    bias_filler {
      type: "constant"
    }
  }
}
layer {
  name: "conv_last_1/sep2/bn"
  type: "BatchNorm"
  bottom: "conv_last_1/sep2"
  top: "conv_last_1/sep2"
  param {
    lr_mult: 0.0
    decay_mult: 0.0
  }
  param {
    lr_mult: 0.0
    decay_mult: 0.0
  }
  param {
    lr_mult: 0.0
    decay_mult: 0.0
  }
  batch_norm_param {
    moving_average_fraction: 0.999000012875
    eps: 0.0010000000475
  }
}
layer {
  name: "conv_last_1/sep2/scale"
  type: "Scale"
  bottom: "conv_last_1/sep2"
  top: "conv_last_1/sep2"
  param {
    lr_mult: 1.0
    decay_mult: 0.0
  }
  param {
    lr_mult: 2.0
    decay_mult: 0.0
  }
  scale_param {
    filler {
      value: 1.0
    }
    bias_term: true
    bias_filler {
      value: 0.0
    }
  }
}
layer {
  name: "conv_last_2/sep1"
  type: "Convolution"
  bottom: "conv_last_1/sep2"
  top: "conv_last_2/sep1"
  convolution_param {
    num_output: 450
    bias_term: false
    pad: 0
    kernel_size: 1
    stride: 1
    weight_filler {
      type: "msra"
    }
    bias_filler {
      type: "constant"
    }
  }
}
layer {
  name: "conv_last_2/sep1/bn"
  type: "BatchNorm"
  bottom: "conv_last_2/sep1"
  top: "conv_last_2/sep1"
  param {
    lr_mult: 0.0
    decay_mult: 0.0
  }
  param {
    lr_mult: 0.0
    decay_mult: 0.0
  }
  param {
    lr_mult: 0.0
    decay_mult: 0.0
  }
  batch_norm_param {
    moving_average_fraction: 0.999000012875
    eps: 0.0010000000475
  }
}
layer {
  name: "conv_last_2/sep1/scale"
  type: "Scale"
  bottom: "conv_last_2/sep1"
  top: "conv_last_2/sep1"
  param {
    lr_mult: 1.0
    decay_mult: 0.0
  }
  param {
    lr_mult: 2.0
    decay_mult: 0.0
  }
  scale_param {
    filler {
      value: 1.0
    }
    bias_term: true
    bias_filler {
      value: 0.0
    }
  }
}
layer {
  name: "conv_last_2/sep1/relu"
  type: "ReLU6"
  bottom: "conv_last_2/sep1"
  top: "conv_last_2/sep1"
}
layer {
  name: "conv_last_2/dw"
  type: "ConvolutionDepthwise"
  bottom: "conv_last_2/sep1"
  top: "conv_last_2/dw"
  convolution_param {
    num_output: 450
    bias_term: false
    pad: 1
    kernel_size: 3
    group: 450
    stride: 1
    weight_filler {
      type: "msra"
    }
    bias_filler {
      type: "constant"
    }
    engine: CAFFE
  }
}
layer {
  name: "conv_last_2/dw/bn"
  type: "BatchNorm"
  bottom: "conv_last_2/dw"
  top: "conv_last_2/dw"
  param {
    lr_mult: 0.0
    decay_mult: 0.0
  }
  param {
    lr_mult: 0.0
    decay_mult: 0.0
  }
  param {
    lr_mult: 0.0
    decay_mult: 0.0
  }
  batch_norm_param {
    moving_average_fraction: 0.999000012875
    eps: 0.0010000000475
  }
}
layer {
  name: "conv_last_2/dw/scale"
  type: "Scale"
  bottom: "conv_last_2/dw"
  top: "conv_last_2/dw"
  param {
    lr_mult: 1.0
    decay_mult: 0.0
  }
  param {
    lr_mult: 2.0
    decay_mult: 0.0
  }
  scale_param {
    filler {
      value: 1.0
    }
    bias_term: true
    bias_filler {
      value: 0.0
    }
  }
}
layer {
  name: "conv_last_2/dw/relu"
  type: "ReLU6"
  bottom: "conv_last_2/dw"
  top: "conv_last_2/dw"
}
layer {
  name: "conv_last_2/sep2"
  type: "Convolution"
  bottom: "conv_last_2/dw"
  top: "conv_last_2/sep2"
  convolution_param {
    num_output: 75
    bias_term: false
    pad: 0
    kernel_size: 1
    stride: 1
    weight_filler {
      type: "msra"
    }
    bias_filler {
      type: "constant"
    }
  }
}
layer {
  name: "conv_last_2/sep2/bn"
  type: "BatchNorm"
  bottom: "conv_last_2/sep2"
  top: "conv_last_2/sep2"
  param {
    lr_mult: 0.0
    decay_mult: 0.0
  }
  param {
    lr_mult: 0.0
    decay_mult: 0.0
  }
  param {
    lr_mult: 0.0
    decay_mult: 0.0
  }
  batch_norm_param {
    moving_average_fraction: 0.999000012875
    eps: 0.0010000000475
  }
}
layer {
  name: "conv_last_2/sep2/scale"
  type: "Scale"
  bottom: "conv_last_2/sep2"
  top: "conv_last_2/sep2"
  param {
    lr_mult: 1.0
    decay_mult: 0.0
  }
  param {
    lr_mult: 2.0
    decay_mult: 0.0
  }
  scale_param {
    filler {
      value: 1.0
    }
    bias_term: true
    bias_filler {
      value: 0.0
    }
  }
}
layer {
  name: "conv_last_2/sep2/eltwise"
  type: "Eltwise"
  bottom: "conv_last_1/sep2"
  bottom: "conv_last_2/sep2"
  top: "conv_last_2/sep2/eltwise"
}
layer {
  name: "conv7_1/sep1"
  type: "Convolution"
  bottom: "conv6_2/sep2/eltwise"
  top: "conv7_1/sep1"
  convolution_param {
    num_output: 1152
    bias_term: false
    pad: 0
    kernel_size: 1
    stride: 1
    weight_filler {
      type: "msra"
    }
    bias_filler {
      type: "constant"
    }
  }
}
layer {
  name: "conv7_1/sep1/bn"
  type: "BatchNorm"
  bottom: "conv7_1/sep1"
  top: "conv7_1/sep1"
  param {
    lr_mult: 0.0
    decay_mult: 0.0
  }
  param {
    lr_mult: 0.0
    decay_mult: 0.0
  }
  param {
    lr_mult: 0.0
    decay_mult: 0.0
  }
  batch_norm_param {
    moving_average_fraction: 0.999000012875
    eps: 0.0010000000475
  }
}
layer {
  name: "conv7_1/sep1/scale"
  type: "Scale"
  bottom: "conv7_1/sep1"
  top: "conv7_1/sep1"
  param {
    lr_mult: 1.0
    decay_mult: 0.0
  }
  param {
    lr_mult: 2.0
    decay_mult: 0.0
  }
  scale_param {
    filler {
      value: 1.0
    }
    bias_term: true
    bias_filler {
      value: 0.0
    }
  }
}
layer {
  name: "conv7_1/sep1/relu"
  type: "ReLU6"
  bottom: "conv7_1/sep1"
  top: "conv7_1/sep1"
}
layer {
  name: "conv7_1/dw"
  type: "ConvolutionDepthwise"
  bottom: "conv7_1/sep1"
  top: "conv7_1/dw"
  convolution_param {
    num_output: 1152
    bias_term: false
    pad: 2
    kernel_size: 5
    group: 1152
    stride: 2
    weight_filler {
      type: "msra"
    }
    bias_filler {
      type: "constant"
    }
    engine: CAFFE
  }
}
layer {
  name: "conv7_1/dw/bn"
  type: "BatchNorm"
  bottom: "conv7_1/dw"
  top: "conv7_1/dw"
  param {
    lr_mult: 0.0
    decay_mult: 0.0
  }
  param {
    lr_mult: 0.0
    decay_mult: 0.0
  }
  param {
    lr_mult: 0.0
    decay_mult: 0.0
  }
  batch_norm_param {
    moving_average_fraction: 0.999000012875
    eps: 0.0010000000475
  }
}
layer {
  name: "conv7_1/dw/scale"
  type: "Scale"
  bottom: "conv7_1/dw"
  top: "conv7_1/dw"
  param {
    lr_mult: 1.0
    decay_mult: 0.0
  }
  param {
    lr_mult: 2.0
    decay_mult: 0.0
  }
  scale_param {
    filler {
      value: 1.0
    }
    bias_term: true
    bias_filler {
      value: 0.0
    }
  }
}
layer {
  name: "conv7_1/dw/relu"
  type: "ReLU6"
  bottom: "conv7_1/dw"
  top: "conv7_1/dw"
}
layer {
  name: "conv7_1/sep2"
  type: "Convolution"
  bottom: "conv7_1/dw"
  top: "conv7_1/sep2"
  convolution_param {
    num_output: 192
    bias_term: false
    pad: 0
    kernel_size: 1
    stride: 1
    weight_filler {
      type: "msra"
    }
    bias_filler {
      type: "constant"
    }
  }
}
layer {
  name: "conv7_1/sep2/bn"
  type: "BatchNorm"
  bottom: "conv7_1/sep2"
  top: "conv7_1/sep2"
  param {
    lr_mult: 0.0
    decay_mult: 0.0
  }
  param {
    lr_mult: 0.0
    decay_mult: 0.0
  }
  param {
    lr_mult: 0.0
    decay_mult: 0.0
  }
  batch_norm_param {
    moving_average_fraction: 0.999000012875
    eps: 0.0010000000475
  }
}
layer {
  name: "conv7_1/sep2/scale"
  type: "Scale"
  bottom: "conv7_1/sep2"
  top: "conv7_1/sep2"
  param {
    lr_mult: 1.0
    decay_mult: 0.0
  }
  param {
    lr_mult: 2.0
    decay_mult: 0.0
  }
  scale_param {
    filler {
      value: 1.0
    }
    bias_term: true
    bias_filler {
      value: 0.0
    }
  }
}
layer {
  name: "conv7_2/sep1"
  type: "Convolution"
  bottom: "conv7_1/sep2"
  top: "conv7_2/sep1"
  convolution_param {
    num_output: 1152
    bias_term: false
    pad: 0
    kernel_size: 1
    stride: 1
    weight_filler {
      type: "msra"
    }
    bias_filler {
      type: "constant"
    }
  }
}
layer {
  name: "conv7_2/sep1/bn"
  type: "BatchNorm"
  bottom: "conv7_2/sep1"
  top: "conv7_2/sep1"
  param {
    lr_mult: 0.0
    decay_mult: 0.0
  }
  param {
    lr_mult: 0.0
    decay_mult: 0.0
  }
  param {
    lr_mult: 0.0
    decay_mult: 0.0
  }
  batch_norm_param {
    moving_average_fraction: 0.999000012875
    eps: 0.0010000000475
  }
}
layer {
  name: "conv7_2/sep1/scale"
  type: "Scale"
  bottom: "conv7_2/sep1"
  top: "conv7_2/sep1"
  param {
    lr_mult: 1.0
    decay_mult: 0.0
  }
  param {
    lr_mult: 2.0
    decay_mult: 0.0
  }
  scale_param {
    filler {
      value: 1.0
    }
    bias_term: true
    bias_filler {
      value: 0.0
    }
  }
}
layer {
  name: "conv7_2/sep1/relu"
  type: "ReLU6"
  bottom: "conv7_2/sep1"
  top: "conv7_2/sep1"
}
layer {
  name: "conv7_2/dw"
  type: "ConvolutionDepthwise"
  bottom: "conv7_2/sep1"
  top: "conv7_2/dw"
  convolution_param {
    num_output: 1152
    bias_term: false
    pad: 2
    kernel_size: 5
    group: 1152
    stride: 1
    weight_filler {
      type: "msra"
    }
    bias_filler {
      type: "constant"
    }
    engine: CAFFE
  }
}
layer {
  name: "conv7_2/dw/bn"
  type: "BatchNorm"
  bottom: "conv7_2/dw"
  top: "conv7_2/dw"
  param {
    lr_mult: 0.0
    decay_mult: 0.0
  }
  param {
    lr_mult: 0.0
    decay_mult: 0.0
  }
  param {
    lr_mult: 0.0
    decay_mult: 0.0
  }
  batch_norm_param {
    moving_average_fraction: 0.999000012875
    eps: 0.0010000000475
  }
}
layer {
  name: "conv7_2/dw/scale"
  type: "Scale"
  bottom: "conv7_2/dw"
  top: "conv7_2/dw"
  param {
    lr_mult: 1.0
    decay_mult: 0.0
  }
  param {
    lr_mult: 2.0
    decay_mult: 0.0
  }
  scale_param {
    filler {
      value: 1.0
    }
    bias_term: true
    bias_filler {
      value: 0.0
    }
  }
}
layer {
  name: "conv7_2/dw/relu"
  type: "ReLU6"
  bottom: "conv7_2/dw"
  top: "conv7_2/dw"
}
layer {
  name: "conv7_2/sep2"
  type: "Convolution"
  bottom: "conv7_2/dw"
  top: "conv7_2/sep2"
  convolution_param {
    num_output: 192
    bias_term: false
    pad: 0
    kernel_size: 1
    stride: 1
    weight_filler {
      type: "msra"
    }
    bias_filler {
      type: "constant"
    }
  }
}
layer {
  name: "conv7_2/sep2/bn"
  type: "BatchNorm"
  bottom: "conv7_2/sep2"
  top: "conv7_2/sep2"
  param {
    lr_mult: 0.0
    decay_mult: 0.0
  }
  param {
    lr_mult: 0.0
    decay_mult: 0.0
  }
  param {
    lr_mult: 0.0
    decay_mult: 0.0
  }
  batch_norm_param {
    moving_average_fraction: 0.999000012875
    eps: 0.0010000000475
  }
}
layer {
  name: "conv7_2/sep2/scale"
  type: "Scale"
  bottom: "conv7_2/sep2"
  top: "conv7_2/sep2"
  param {
    lr_mult: 1.0
    decay_mult: 0.0
  }
  param {
    lr_mult: 2.0
    decay_mult: 0.0
  }
  scale_param {
    filler {
      value: 1.0
    }
    bias_term: true
    bias_filler {
      value: 0.0
    }
  }
}
layer {
  name: "conv7_2/sep2/eltwise"
  type: "Eltwise"
  bottom: "conv7_1/sep2"
  bottom: "conv7_2/sep2"
  top: "conv7_2/sep2/eltwise"
}
layer {
  name: "conv7_3/sep1"
  type: "Convolution"
  bottom: "conv7_2/sep2/eltwise"
  top: "conv7_3/sep1"
  convolution_param {
    num_output: 1152
    bias_term: false
    pad: 0
    kernel_size: 1
    stride: 1
    weight_filler {
      type: "msra"
    }
    bias_filler {
      type: "constant"
    }
  }
}
layer {
  name: "conv7_3/sep1/bn"
  type: "BatchNorm"
  bottom: "conv7_3/sep1"
  top: "conv7_3/sep1"
  param {
    lr_mult: 0.0
    decay_mult: 0.0
  }
  param {
    lr_mult: 0.0
    decay_mult: 0.0
  }
  param {
    lr_mult: 0.0
    decay_mult: 0.0
  }
  batch_norm_param {
    moving_average_fraction: 0.999000012875
    eps: 0.0010000000475
  }
}
layer {
  name: "conv7_3/sep1/scale"
  type: "Scale"
  bottom: "conv7_3/sep1"
  top: "conv7_3/sep1"
  param {
    lr_mult: 1.0
    decay_mult: 0.0
  }
  param {
    lr_mult: 2.0
    decay_mult: 0.0
  }
  scale_param {
    filler {
      value: 1.0
    }
    bias_term: true
    bias_filler {
      value: 0.0
    }
  }
}
layer {
  name: "conv7_3/sep1/relu"
  type: "ReLU6"
  bottom: "conv7_3/sep1"
  top: "conv7_3/sep1"
}
layer {
  name: "conv7_3/dw"
  type: "ConvolutionDepthwise"
  bottom: "conv7_3/sep1"
  top: "conv7_3/dw"
  convolution_param {
    num_output: 1152
    bias_term: false
    pad: 2
    kernel_size: 5
    group: 1152
    stride: 1
    weight_filler {
      type: "msra"
    }
    bias_filler {
      type: "constant"
    }
    engine: CAFFE
  }
}
layer {
  name: "conv7_3/dw/bn"
  type: "BatchNorm"
  bottom: "conv7_3/dw"
  top: "conv7_3/dw"
  param {
    lr_mult: 0.0
    decay_mult: 0.0
  }
  param {
    lr_mult: 0.0
    decay_mult: 0.0
  }
  param {
    lr_mult: 0.0
    decay_mult: 0.0
  }
  batch_norm_param {
    moving_average_fraction: 0.999000012875
    eps: 0.0010000000475
  }
}
layer {
  name: "conv7_3/dw/scale"
  type: "Scale"
  bottom: "conv7_3/dw"
  top: "conv7_3/dw"
  param {
    lr_mult: 1.0
    decay_mult: 0.0
  }
  param {
    lr_mult: 2.0
    decay_mult: 0.0
  }
  scale_param {
    filler {
      value: 1.0
    }
    bias_term: true
    bias_filler {
      value: 0.0
    }
  }
}
layer {
  name: "conv7_3/dw/relu"
  type: "ReLU6"
  bottom: "conv7_3/dw"
  top: "conv7_3/dw"
}
layer {
  name: "conv7_3/sep2"
  type: "Convolution"
  bottom: "conv7_3/dw"
  top: "conv7_3/sep2"
  convolution_param {
    num_output: 192
    bias_term: false
    pad: 0
    kernel_size: 1
    stride: 1
    weight_filler {
      type: "msra"
    }
    bias_filler {
      type: "constant"
    }
  }
}
layer {
  name: "conv7_3/sep2/bn"
  type: "BatchNorm"
  bottom: "conv7_3/sep2"
  top: "conv7_3/sep2"
  param {
    lr_mult: 0.0
    decay_mult: 0.0
  }
  param {
    lr_mult: 0.0
    decay_mult: 0.0
  }
  param {
    lr_mult: 0.0
    decay_mult: 0.0
  }
  batch_norm_param {
    moving_average_fraction: 0.999000012875
    eps: 0.0010000000475
  }
}
layer {
  name: "conv7_3/sep2/scale"
  type: "Scale"
  bottom: "conv7_3/sep2"
  top: "conv7_3/sep2"
  param {
    lr_mult: 1.0
    decay_mult: 0.0
  }
  param {
    lr_mult: 2.0
    decay_mult: 0.0
  }
  scale_param {
    filler {
      value: 1.0
    }
    bias_term: true
    bias_filler {
      value: 0.0
    }
  }
}
layer {
  name: "conv7_3/sep2/eltwise"
  type: "Eltwise"
  bottom: "conv7_2/sep2/eltwise"
  bottom: "conv7_3/sep2"
  top: "conv7_3/sep2/eltwise"
}
layer {
  name: "conv7_4/sep1"
  type: "Convolution"
  bottom: "conv7_3/sep2/eltwise"
  top: "conv7_4/sep1"
  convolution_param {
    num_output: 1152
    bias_term: false
    pad: 0
    kernel_size: 1
    stride: 1
    weight_filler {
      type: "msra"
    }
    bias_filler {
      type: "constant"
    }
  }
}
layer {
  name: "conv7_4/sep1/bn"
  type: "BatchNorm"
  bottom: "conv7_4/sep1"
  top: "conv7_4/sep1"
  param {
    lr_mult: 0.0
    decay_mult: 0.0
  }
  param {
    lr_mult: 0.0
    decay_mult: 0.0
  }
  param {
    lr_mult: 0.0
    decay_mult: 0.0
  }
  batch_norm_param {
    moving_average_fraction: 0.999000012875
    eps: 0.0010000000475
  }
}
layer {
  name: "conv7_4/sep1/scale"
  type: "Scale"
  bottom: "conv7_4/sep1"
  top: "conv7_4/sep1"
  param {
    lr_mult: 1.0
    decay_mult: 0.0
  }
  param {
    lr_mult: 2.0
    decay_mult: 0.0
  }
  scale_param {
    filler {
      value: 1.0
    }
    bias_term: true
    bias_filler {
      value: 0.0
    }
  }
}
layer {
  name: "conv7_4/sep1/relu"
  type: "ReLU6"
  bottom: "conv7_4/sep1"
  top: "conv7_4/sep1"
}
layer {
  name: "conv7_4/dw"
  type: "ConvolutionDepthwise"
  bottom: "conv7_4/sep1"
  top: "conv7_4/dw"
  convolution_param {
    num_output: 1152
    bias_term: false
    pad: 2
    kernel_size: 5
    group: 1152
    stride: 1
    weight_filler {
      type: "msra"
    }
    bias_filler {
      type: "constant"
    }
    engine: CAFFE
  }
}
layer {
  name: "conv7_4/dw/bn"
  type: "BatchNorm"
  bottom: "conv7_4/dw"
  top: "conv7_4/dw"
  param {
    lr_mult: 0.0
    decay_mult: 0.0
  }
  param {
    lr_mult: 0.0
    decay_mult: 0.0
  }
  param {
    lr_mult: 0.0
    decay_mult: 0.0
  }
  batch_norm_param {
    moving_average_fraction: 0.999000012875
    eps: 0.0010000000475
  }
}
layer {
  name: "conv7_4/dw/scale"
  type: "Scale"
  bottom: "conv7_4/dw"
  top: "conv7_4/dw"
  param {
    lr_mult: 1.0
    decay_mult: 0.0
  }
  param {
    lr_mult: 2.0
    decay_mult: 0.0
  }
  scale_param {
    filler {
      value: 1.0
    }
    bias_term: true
    bias_filler {
      value: 0.0
    }
  }
}
layer {
  name: "conv7_4/dw/relu"
  type: "ReLU6"
  bottom: "conv7_4/dw"
  top: "conv7_4/dw"
}
layer {
  name: "conv7_4/sep2"
  type: "Convolution"
  bottom: "conv7_4/dw"
  top: "conv7_4/sep2"
  convolution_param {
    num_output: 192
    bias_term: false
    pad: 0
    kernel_size: 1
    stride: 1
    weight_filler {
      type: "msra"
    }
    bias_filler {
      type: "constant"
    }
  }
}
layer {
  name: "conv7_4/sep2/bn"
  type: "BatchNorm"
  bottom: "conv7_4/sep2"
  top: "conv7_4/sep2"
  param {
    lr_mult: 0.0
    decay_mult: 0.0
  }
  param {
    lr_mult: 0.0
    decay_mult: 0.0
  }
  param {
    lr_mult: 0.0
    decay_mult: 0.0
  }
  batch_norm_param {
    moving_average_fraction: 0.999000012875
    eps: 0.0010000000475
  }
}
layer {
  name: "conv7_4/sep2/scale"
  type: "Scale"
  bottom: "conv7_4/sep2"
  top: "conv7_4/sep2"
  param {
    lr_mult: 1.0
    decay_mult: 0.0
  }
  param {
    lr_mult: 2.0
    decay_mult: 0.0
  }
  scale_param {
    filler {
      value: 1.0
    }
    bias_term: true
    bias_filler {
      value: 0.0
    }
  }
}
layer {
  name: "conv7_4/sep2/eltwise"
  type: "Eltwise"
  bottom: "conv7_3/sep2/eltwise"
  bottom: "conv7_4/sep2"
  top: "conv7_4/sep2/eltwise"
}
layer {
  name: "conv8_1/sep1"
  type: "Convolution"
  bottom: "conv7_4/sep2/eltwise"
  top: "conv8_1/sep1"
  convolution_param {
    num_output: 1920
    bias_term: false
    pad: 0
    kernel_size: 1
    stride: 1
    weight_filler {
      type: "msra"
    }
    bias_filler {
      type: "constant"
    }
  }
}
layer {
  name: "conv8_1/sep1/bn"
  type: "BatchNorm"
  bottom: "conv8_1/sep1"
  top: "conv8_1/sep1"
  param {
    lr_mult: 0.0
    decay_mult: 0.0
  }
  param {
    lr_mult: 0.0
    decay_mult: 0.0
  }
  param {
    lr_mult: 0.0
    decay_mult: 0.0
  }
  batch_norm_param {
    moving_average_fraction: 0.999000012875
    eps: 0.0010000000475
  }
}
layer {
  name: "conv8_1/sep1/scale"
  type: "Scale"
  bottom: "conv8_1/sep1"
  top: "conv8_1/sep1"
  param {
    lr_mult: 1.0
    decay_mult: 0.0
  }
  param {
    lr_mult: 2.0
    decay_mult: 0.0
  }
  scale_param {
    filler {
      value: 1.0
    }
    bias_term: true
    bias_filler {
      value: 0.0
    }
  }
}
layer {
  name: "conv8_1/sep1/relu"
  type: "ReLU6"
  bottom: "conv8_1/sep1"
  top: "conv8_1/sep1"
}
layer {
  name: "conv8_1/dw"
  type: "ConvolutionDepthwise"
  bottom: "conv8_1/sep1"
  top: "conv8_1/dw"
  convolution_param {
    num_output: 1920
    bias_term: false
    pad: 1
    kernel_size: 3
    group: 1920
    stride: 1
    weight_filler {
      type: "msra"
    }
    bias_filler {
      type: "constant"
    }
    engine: CAFFE
  }
}
layer {
  name: "conv8_1/dw/bn"
  type: "BatchNorm"
  bottom: "conv8_1/dw"
  top: "conv8_1/dw"
  param {
    lr_mult: 0.0
    decay_mult: 0.0
  }
  param {
    lr_mult: 0.0
    decay_mult: 0.0
  }
  param {
    lr_mult: 0.0
    decay_mult: 0.0
  }
  batch_norm_param {
    moving_average_fraction: 0.999000012875
    eps: 0.0010000000475
  }
}
layer {
  name: "conv8_1/dw/scale"
  type: "Scale"
  bottom: "conv8_1/dw"
  top: "conv8_1/dw"
  param {
    lr_mult: 1.0
    decay_mult: 0.0
  }
  param {
    lr_mult: 2.0
    decay_mult: 0.0
  }
  scale_param {
    filler {
      value: 1.0
    }
    bias_term: true
    bias_filler {
      value: 0.0
    }
  }
}
layer {
  name: "conv8_1/dw/relu"
  type: "ReLU6"
  bottom: "conv8_1/dw"
  top: "conv8_1/dw"
}
layer {
  name: "conv8_1/sep2"
  type: "Convolution"
  bottom: "conv8_1/dw"
  top: "conv8_1/sep2"
  convolution_param {
    num_output: 320
    bias_term: false
    pad: 0
    kernel_size: 1
    stride: 1
    weight_filler {
      type: "msra"
    }
    bias_filler {
      type: "constant"
    }
  }
}
layer {
  name: "conv8_1/sep2/bn"
  type: "BatchNorm"
  bottom: "conv8_1/sep2"
  top: "conv8_1/sep2"
  param {
    lr_mult: 0.0
    decay_mult: 0.0
  }
  param {
    lr_mult: 0.0
    decay_mult: 0.0
  }
  param {
    lr_mult: 0.0
    decay_mult: 0.0
  }
  batch_norm_param {
    moving_average_fraction: 0.999000012875
    eps: 0.0010000000475
  }
}
layer {
  name: "conv8_1/sep2/scale"
  type: "Scale"
  bottom: "conv8_1/sep2"
  top: "conv8_1/sep2"
  param {
    lr_mult: 1.0
    decay_mult: 0.0
  }
  param {
    lr_mult: 2.0
    decay_mult: 0.0
  }
  scale_param {
    filler {
      value: 1.0
    }
    bias_term: true
    bias_filler {
      value: 0.0
    }
  }
}
layer {
  name: "conv9_1/sep1"
  type: "Convolution"
  bottom: "conv8_1/sep2"
  top: "conv9_1/sep1"
  convolution_param {
    num_output: 450
    bias_term: false
    pad: 0
    kernel_size: 1
    stride: 1
    weight_filler {
      type: "msra"
    }
    bias_filler {
      type: "constant"
    }
  }
}
layer {
  name: "conv9_1/sep1/bn"
  type: "BatchNorm"
  bottom: "conv9_1/sep1"
  top: "conv9_1/sep1"
  param {
    lr_mult: 0.0
    decay_mult: 0.0
  }
  param {
    lr_mult: 0.0
    decay_mult: 0.0
  }
  param {
    lr_mult: 0.0
    decay_mult: 0.0
  }
  batch_norm_param {
    moving_average_fraction: 0.999000012875
    eps: 0.0010000000475
  }
}
layer {
  name: "conv9_1/sep1/scale"
  type: "Scale"
  bottom: "conv9_1/sep1"
  top: "conv9_1/sep1"
  param {
    lr_mult: 1.0
    decay_mult: 0.0
  }
  param {
    lr_mult: 2.0
    decay_mult: 0.0
  }
  scale_param {
    filler {
      value: 1.0
    }
    bias_term: true
    bias_filler {
      value: 0.0
    }
  }
}
layer {
  name: "conv9_1/sep1/relu"
  type: "ReLU6"
  bottom: "conv9_1/sep1"
  top: "conv9_1/sep1"
}
layer {
  name: "conv9_1/dw"
  type: "ConvolutionDepthwise"
  bottom: "conv9_1/sep1"
  top: "conv9_1/dw"
  convolution_param {
    num_output: 450
    bias_term: false
    pad: 1
    kernel_size: 3
    group: 450
    stride: 1
    weight_filler {
      type: "msra"
    }
    bias_filler {
      type: "constant"
    }
    engine: CAFFE
  }
}
layer {
  name: "conv9_1/dw/bn"
  type: "BatchNorm"
  bottom: "conv9_1/dw"
  top: "conv9_1/dw"
  param {
    lr_mult: 0.0
    decay_mult: 0.0
  }
  param {
    lr_mult: 0.0
    decay_mult: 0.0
  }
  param {
    lr_mult: 0.0
    decay_mult: 0.0
  }
  batch_norm_param {
    moving_average_fraction: 0.999000012875
    eps: 0.0010000000475
  }
}
layer {
  name: "conv9_1/dw/scale"
  type: "Scale"
  bottom: "conv9_1/dw"
  top: "conv9_1/dw"
  param {
    lr_mult: 1.0
    decay_mult: 0.0
  }
  param {
    lr_mult: 2.0
    decay_mult: 0.0
  }
  scale_param {
    filler {
      value: 1.0
    }
    bias_term: true
    bias_filler {
      value: 0.0
    }
  }
}
layer {
  name: "conv9_1/dw/relu"
  type: "ReLU6"
  bottom: "conv9_1/dw"
  top: "conv9_1/dw"
}
layer {
  name: "conv9_1/sep2"
  type: "Convolution"
  bottom: "conv9_1/dw"
  top: "conv9_1/sep2"
  convolution_param {
    num_output: 75
    bias_term: false
    pad: 0
    kernel_size: 1
    stride: 1
    weight_filler {
      type: "msra"
    }
    bias_filler {
      type: "constant"
    }
  }
}
layer {
  name: "conv9_1/sep2/bn"
  type: "BatchNorm"
  bottom: "conv9_1/sep2"
  top: "conv9_1/sep2"
  param {
    lr_mult: 0.0
    decay_mult: 0.0
  }
  param {
    lr_mult: 0.0
    decay_mult: 0.0
  }
  param {
    lr_mult: 0.0
    decay_mult: 0.0
  }
  batch_norm_param {
    moving_average_fraction: 0.999000012875
    eps: 0.0010000000475
  }
}
layer {
  name: "conv9_1/sep2/scale"
  type: "Scale"
  bottom: "conv9_1/sep2"
  top: "conv9_1/sep2"
  param {
    lr_mult: 1.0
    decay_mult: 0.0
  }
  param {
    lr_mult: 2.0
    decay_mult: 0.0
  }
  scale_param {
    filler {
      value: 1.0
    }
    bias_term: true
    bias_filler {
      value: 0.0
    }
  }
}
layer {
  name: "conv9_2/sep1"
  type: "Convolution"
  bottom: "conv9_1/sep2"
  top: "conv9_2/sep1"
  convolution_param {
    num_output: 450
    bias_term: false
    pad: 0
    kernel_size: 1
    stride: 1
    weight_filler {
      type: "msra"
    }
    bias_filler {
      type: "constant"
    }
  }
}
layer {
  name: "conv9_2/sep1/bn"
  type: "BatchNorm"
  bottom: "conv9_2/sep1"
  top: "conv9_2/sep1"
  param {
    lr_mult: 0.0
    decay_mult: 0.0
  }
  param {
    lr_mult: 0.0
    decay_mult: 0.0
  }
  param {
    lr_mult: 0.0
    decay_mult: 0.0
  }
  batch_norm_param {
    moving_average_fraction: 0.999000012875
    eps: 0.0010000000475
  }
}
layer {
  name: "conv9_2/sep1/scale"
  type: "Scale"
  bottom: "conv9_2/sep1"
  top: "conv9_2/sep1"
  param {
    lr_mult: 1.0
    decay_mult: 0.0
  }
  param {
    lr_mult: 2.0
    decay_mult: 0.0
  }
  scale_param {
    filler {
      value: 1.0
    }
    bias_term: true
    bias_filler {
      value: 0.0
    }
  }
}
layer {
  name: "conv9_2/sep1/relu"
  type: "ReLU6"
  bottom: "conv9_2/sep1"
  top: "conv9_2/sep1"
}
layer {
  name: "conv9_2/dw"
  type: "ConvolutionDepthwise"
  bottom: "conv9_2/sep1"
  top: "conv9_2/dw"
  convolution_param {
    num_output: 450
    bias_term: false
    pad: 1
    kernel_size: 3
    group: 450
    stride: 1
    weight_filler {
      type: "msra"
    }
    bias_filler {
      type: "constant"
    }
    engine: CAFFE
  }
}
layer {
  name: "conv9_2/dw/bn"
  type: "BatchNorm"
  bottom: "conv9_2/dw"
  top: "conv9_2/dw"
  param {
    lr_mult: 0.0
    decay_mult: 0.0
  }
  param {
    lr_mult: 0.0
    decay_mult: 0.0
  }
  param {
    lr_mult: 0.0
    decay_mult: 0.0
  }
  batch_norm_param {
    moving_average_fraction: 0.999000012875
    eps: 0.0010000000475
  }
}
layer {
  name: "conv9_2/dw/scale"
  type: "Scale"
  bottom: "conv9_2/dw"
  top: "conv9_2/dw"
  param {
    lr_mult: 1.0
    decay_mult: 0.0
  }
  param {
    lr_mult: 2.0
    decay_mult: 0.0
  }
  scale_param {
    filler {
      value: 1.0
    }
    bias_term: true
    bias_filler {
      value: 0.0
    }
  }
}
layer {
  name: "conv9_2/dw/relu"
  type: "ReLU6"
  bottom: "conv9_2/dw"
  top: "conv9_2/dw"
}
layer {
  name: "conv9_2/sep2"
  type: "Convolution"
  bottom: "conv9_2/dw"
  top: "conv9_2/sep2"
  convolution_param {
    num_output: 75
    bias_term: false
    pad: 0
    kernel_size: 1
    stride: 1
    weight_filler {
      type: "msra"
    }
    bias_filler {
      type: "constant"
    }
  }
}
layer {
  name: "conv9_2/sep2/bn"
  type: "BatchNorm"
  bottom: "conv9_2/sep2"
  top: "conv9_2/sep2"
  param {
    lr_mult: 0.0
    decay_mult: 0.0
  }
  param {
    lr_mult: 0.0
    decay_mult: 0.0
  }
  param {
    lr_mult: 0.0
    decay_mult: 0.0
  }
  batch_norm_param {
    moving_average_fraction: 0.999000012875
    eps: 0.0010000000475
  }
}
layer {
  name: "conv9_2/sep2/scale"
  type: "Scale"
  bottom: "conv9_2/sep2"
  top: "conv9_2/sep2"
  param {
    lr_mult: 1.0
    decay_mult: 0.0
  }
  param {
    lr_mult: 2.0
    decay_mult: 0.0
  }
  scale_param {
    filler {
      value: 1.0
    }
    bias_term: true
    bias_filler {
      value: 0.0
    }
  }
}
layer {
  name: "conv9_2/sep2/eltwise"
  type: "Eltwise"
  bottom: "conv9_1/sep2"
  bottom: "conv9_2/sep2"
  top: "conv9_2/sep2/eltwise"
}
layer {
  name: "Yolov3Loss1"
  type: "Yolov3"
  bottom: "conv9_2/sep2/eltwise"
  bottom: "label"
  top: "Yolov3Loss1"
  include {
    phase: TRAIN
  }
  yolov3_param {
    side: 13
    num_class: 20
    num: 3
    object_scale: 5.0
    class_scale: 1.0
    noobject_scale: 1.0
    coord_scale: 1.0
    thresh: 0.600000023842
    anchors_scale: 32
    biases: 10.0
    biases: 14.0
    biases: 23.0
    biases: 27.0
    biases: 37.0
    biases: 58.0
    biases: 81.0
    biases: 82.0
    biases: 135.0
    biases: 169.0
    biases: 344.0
    biases: 319.0
    mask: 3
    mask: 4
    mask: 5
    use_logic_gradient: false
  }
}
layer {
  name: "upsample"
  type: "Deconvolution"
  bottom: "conv9_2/sep2/eltwise"
  top: "upsample"
  param {
    lr_mult: 0.0
    decay_mult: 0.0
  }
  convolution_param {
    num_output: 75
    bias_term: false
    pad: 1
    kernel_size: 4
    group: 75
    stride: 2
    weight_filler {
      type: "bilinear"
    }
  }
}
layer {
  name: "Eltwise1"
  type: "Eltwise"
  bottom: "upsample"
  bottom: "conv_last_2/sep2/eltwise"
  top: "Eltwise1"
}
layer {
  name: "Yolov3Loss2"
  type: "Yolov3"
  bottom: "Eltwise1"
  bottom: "label"
  top: "Yolov3Loss2"
  include {
    phase: TRAIN
  }
  yolov3_param {
    side: 26
    num_class: 20
    num: 3
    object_scale: 5.0
    class_scale: 1.0
    noobject_scale: 1.0
    coord_scale: 1.0
    thresh: 0.600000023842
    anchors_scale: 16
    biases: 10.0
    biases: 14.0
    biases: 23.0
    biases: 27.0
    biases: 37.0
    biases: 58.0
    biases: 81.0
    biases: 82.0
    biases: 135.0
    biases: 169.0
    biases: 344.0
    biases: 319.0
    mask: 0
    mask: 1
    mask: 2
    use_logic_gradient: false
  }
}
layer {
  name: "Yolov3DetectionOutput1"
  type: "Yolov3DetectionOutput"
  bottom: "conv9_2/sep2/eltwise"
  bottom: "Eltwise1"
  top: "Yolov3DetectionOutput1"
  include {
    phase: TEST
  }
  yolov3_detection_output_param {
    num_classes: 20
    confidence_threshold: 0.00999999977648
    nms_threshold: 0.449999988079
    biases: 10.0
    biases: 14.0
    biases: 23.0
    biases: 27.0
    biases: 37.0
    biases: 58.0
    biases: 81.0
    biases: 82.0
    biases: 135.0
    biases: 169.0
    biases: 344.0
    biases: 319.0
    anchors_scale: 32
    anchors_scale: 16
    mask_group_num: 2
    mask: 3
    mask: 4
    mask: 5
    mask: 0
    mask: 1
    mask: 2
  }
}
layer {
  name: "DetectionEvaluate"
  type: "DetectionEvaluate"
  bottom: "Yolov3DetectionOutput1"
  bottom: "label"
  top: "DetectionEvaluate"
  include {
    phase: TEST
  }
  detection_evaluate_param {
    num_classes: 21
    background_label_id: 0
    overlap_threshold: 0.5
    evaluate_difficult_gt: false
  }
}
